Deep-Q-Network/model_weights.pth (torch, 176925 bytes, 22 tensors)

layers.0.weight f4 [16, 3, 5, 5]
000000 a2 22 13 be 42 9d 0f be 4c 49 10 be d6 82 e3 bd
       -0.1436868 -0.14024833 -0.1409046 -0.11108939
000010 60 86 68 3b 60 6e 26 3b 96 4c 24 be 18 45 e6 bd
       0.0035480484 0.0025395378 -0.1604484 -0.11243647
000020 31 7d 3e be 28 cd a6 bd 6a dc c7 bd 84 28 93 bc
       -0.18602444 -0.08144599 -0.097588375 -0.017963655
000030 e2 9a 21 bd cc bd 0f be 44 3c ab bc 1a b5 b0 bd
       -0.03945435 -0.14037246 -0.02090276 -0.086282924
000040 bc 68 a5 bd 4e b1 2f be 04 65 9e bc d1 5d 91 bd
       -0.08076617 -0.1715748 -0.019335277 -0.07097972
000050 08 12 a3 bd 0b 14 de bd bf 95 1f be 08 8f 57 bc
       -0.079624236 -0.10843667 -0.15584467 -0.01315666
000060 e4 9e e9 bd e4 14 3e be 56 77 13 be 20 9c ad bd
       -0.11407259 -0.18562657 -0.14400992 -0.08477044
000070 ab 3e bd bd 2a 49 0e bd 50 fa bc bb 21 2e 8f bd
       -0.092404686 -0.034737743 -0.0057671443 -0.0699122
000080 d0 5d 92 bb 92 d8 35 bd 58 f7 78 3c 56 2c 58 be
       -0.0044667497 -0.04439599 0.01519569 -0.21110663
000090 c4 c9 89 bc c6 6b 0c be 50 22 8e bb 4c ea b8 bd
       -0.016819842 -0.13712987 -0.0043375865 -0.090290636
0000a0 8d 22 fd bd 12 31 50 be 81 26 1b be 62 70 a8 bd
       -0.12360106 -0.20331219 -0.15151407 -0.0822456
0000b0 15 e0 82 bd c4 65 80 bc d1 6c ed bd 04 c4 46 be
       -0.063903965 -0.015673526 -0.11593021 -0.19410712
0000c0 7a 80 33 bd 6a 10 dd bd e8 17 5d bc 3c 64 3b be
       -0.043823697 -0.10794146 -0.013494469 -0.18299955
0000d0 0a 80 61 bd da 5c 7a bd 5c f1 f5 bd 7a c1 32 bd
       -0.05505375 -0.061123706 -0.12008926 -0.043641545
0000e0 69 04 d6 bd 2a 2a 92 bd c2 85 5c bd d8 94 2d be
       -0.1045006 -0.071369484 -0.0538385 -0.1695131
0000f0 1a 8b 69 bd 14 1d d7 bd af fe 28 be 28 e9 7c bc
       -0.057017423 -0.10503593 -0.16503404 -0.015436448
000100 9c 00 0a be 7a 5a 54 bd 6a b4 b6 bd 74 15 ba bc
       -0.13476795 -0.051844098 -0.0892113 -0.022715308
000110 ee 9f c1 bd be b6 9c bd 29 fa 13 be a2 47 6c bd
       -0.09454332 -0.07652043 -0.14450897 -0.057685502
000120 ff 71 c8 bd 61 98 83 bd 04 54 29 be c2 bc 31 3d
       -0.09787368 -0.06425548 -0.16535956 0.043392904
000130 e6 a9 62 3d da 2f dd bd 38 f0 4b bd e4 21 15 3d
       0.05533781 -0.108001426 -0.049789637 0.036409274
000140 ac 51 3c 3d 53 8c b6 bd f6 f9 36 bd c5 bc 92 bd
       0.045976326 -0.089134835 -0.044671975 -0.07164911
000150 1a ae 59 bd 06 32 51 bd d4 27 b1 bc 28 aa dd bd
       -0.05314455 -0.051073097 -0.021625437 -0.1082347
000160 35 4e a1 3d db e7 ab bd bd 89 c1 bd f5 42 8a bd
       0.07876245 -0.08393832 -0.094500996 -0.06751052
000170 50 b0 84 3b bc 58 f9 bd fc 54 42 3d 96 ae 07 bd
       0.0040493384 -0.12175128 0.04744433 -0.033125482
000180 18 9d d7 bd 1a 8c 75 3d 8e ff da bd 46 98 d1 bd
       -0.1052801 0.059948064 -0.106932744 -0.10234122
000190 ec 97 5d 3d 10 30 7c 3c ac 68 a0 3d 1e c3 e3 bd
       0.054099962 0.015392318 0.078324646 -0.111212
0001a0 5b 95 9c bd 1a 4d ce 3d 28 23 6e 3c 06 24 36 3d
       -0.07645675 0.100733 0.014534749 0.04446795
0001b0 98 c7 c8 3d cb 96 0e bd dc 40 82 bc 02 48 3a bd
       0.098036945 -0.034811776 -0.015900068 -0.04547883
0001c0 c6 87 4c 3d 4e 10 e2 3d 9d a4 b3 3d fc 12 64 bd
       0.04993417 0.11038266 0.08771632 -0.055682167
0001d0 52 4e 93 3d 2a 2a a7 bc 24 2a 13 bd c0 28 7a bb
       0.07192673 -0.020405848 -0.03592886 -0.0038171262
0001e0 9c 3d 79 3d 88 62 af bd 64 68 8b 3d 02 39 05 3d
       0.06084977 -0.08563715 0.0680702 0.03252507
0001f0 e0 64 ff 3c ca c8 e4 bd 94 14 48 3d 95 cb eb bd
       0.03117603 -0.1117111 0.04884775 -0.115134396
000200 8c 08 92 bd d4 38 60 bd 10 cc 90 bb a6 db ce 3d
       -0.071305364 -0.054741696 -0.0044188574 0.10100488
000210 74 21 aa bd f5 2b ae bd 88 4c 00 3c 7a 94 29 3d
       -0.08307162 -0.08504478 0.0078307465 0.041401364
000220 dc aa 3b 3d f4 dd 7a 3d ca 27 d1 3d 0f 4a 0e bd
       0.04581724 0.061246827 0.10212667 -0.034738597
000230 ea 62 2e 3d 82 bf a0 bc 6d e5 f4 bd 3a 77 42 3d
       0.0425748 -0.019622568 -0.11957822 0.047476985
000240 10 ca cd bb 0a 3d b3 3d da 13 06 3d a1 b8 b7 3d
       -0.0062801912 0.08751877 0.032733776 0.08970762
000250 71 c2 c0 bd 3a 43 5d 3d 88 97 f6 bc c0 b9 5c 3c
       -0.09412087 0.05401919 -0.030101553 0.013472021
000260 20 8c 61 bc 26 79 c8 bd 57 9b 04 be cb 24 2b be
       -0.013766319 -0.09788732 -0.12949882 -0.16713254
000270 b4 b1 37 bd 66 8d ae bd 3b 4d d7 bd 8a 7b ad bd
       -0.044847205 -0.08523063 -0.105127774 -0.08470829
000280 0b a5 31 be 90 36 8c bd 09 79 11 be 06 87 3b be
       -0.17348115 -0.068463445 -0.14206327 -0.18313226
000290 26 97 2d be 6c 59 4c bd dc b0 3a bd f0 59 08 bc
       -0.1695219 -0.049889967 -0.045578822 -0.008322224
0002a0 86 b2 15 be 18 c6 78 bd 70 64 0a 3c 82 a3 e6 bd
       -0.14618883 -0.060735792 0.008446798 -0.112616554
0002b0 38 84 83 bd 10 bc 44 3c 00 ec fd 3b 84 83 4c bd
       -0.06421703 0.012007728 0.0077490807 -0.04993011
0002c0 dc d4 0d bd 80 46 1d 3c e8 e4 16 be 44 a9 0e bd
       -0.034626827 0.009599328 -0.14735758 -0.034829393
0002d0 40 46 1c 3c 0a 18 f1 bd 44 eb cb bd 00 30 7b ba
       0.009538233 -0.11772163 -0.09956983 -0.00095820427
0002e0 5c 2d 65 bd 9a 77 06 be bc 75 de bd 90 a4 64 3c
       -0.05595146 -0.13131562 -0.108623 0.01395525
0002f0 74 99 94 bd 34 6e 0e be c8 7d 1a bd dc 10 27 be
       -0.07255831 -0.13909227 -0.03771761 -0.16315025
000300 a9 75 28 be 34 4d 2a bd 7e 29 1e be ec 3e 02 be
       -0.16451134 -0.041577533 -0.15445516 -0.12719315
000310 e2 91 40 be a8 22 57 be 08 81 3d be ec ee 0a bd
       -0.1880565 -0.21009314 -0.18506253 -0.03391926
000320 9f 46 bc bd 48 61 f8 bc 7d e8 3c be e0 54 dc bc
       -0.091931574 -0.030319825 -0.18448062 -0.02689594
000330 48 12 10 be 26 ee a0 bd e0 b6 3a 3c 56 fb 2a be
       -0.14069474 -0.07857923 0.01139614 -0.1669744
000340 07 06 07 be 70 8f 4a be 96 48 1c be 64 ad 3b be
       -0.13185893 -0.1978128 -0.15262064 -0.18327862
000350 01 61 bc bd f4 7a 37 be d0 d5 3d bd 3c 22 eb bd
       -0.091981895 -0.17917997 -0.046346486 -0.11481139
000360 d8 5f ee bc 42 a0 e7 bd 5a 95 d9 bd a5 0c f9 bd
       -0.029098436 -0.113098636 -0.1062419 -0.12160615
000370 43 79 c0 bd 81 c7 ce bd 9c 74 24 bd fa 7a 89 bd
       -0.09398129 -0.10096646 -0.04015027 -0.06712909
000380 b9 32 39 be 16 54 07 40 60 aa ee 3f 41 18 f7 3f
       -0.18085755 2.1145072 1.8645744 1.9304277
000390 cb 06 04 40 63 07 09 40 73 20 fb 3f 1e 8b f9 3f
       2.0629146 2.1410758 1.9619278 1.949558
0003a0 7e fb e6 3f 16 22 01 40 b6 e7 fb 3f b8 7d 03 40
       1.8045499 2.0177054 1.9680088 2.0545483
0003b0 fc 97 f6 3f 8c 17 f8 3f 85 1f f4 3f fc bc f8 3f
       1.9265132 1.9382186 1.9072119 1.9432673
0003c0 72 bf 07 40 ee d8 08 40 6c f0 f0 3f bd 20 f6 3f
       2.12106 2.1382403 1.8823371 1.9228741
0003d0 50 e7 00 40 d0 3c 08 40 28 27 f1 3f 9a c3 e1 3f
       2.0141182 2.1287117 1.8840075 1.7637818
0003e0 1d df ec 3f 9a 98 e3 3f 98 a1 05 40 65 cd e3 3f
       1.8505589 1.7780945 2.087988 1.7797056
0003f0 4a 17 f7 3f 31 43 06 40 d3 a0 08 40 d0 02 fa 3f
       1.9303982 2.097851 2.134816 1.9532108

layers.0.bias f4 [16]
000000 93 23 3f be 94 fb 75 bd 15 76 e8 bd 84 be f5 3f
       -0.18665914 -0.060054377 -0.11350647 1.9198766
000010 e4 cb 6d 3d 98 45 3f bd dc 0e e0 3d 15 62 3c be
       0.058055773 -0.04669723 0.10940334 -0.1839679
000020 24 d5 94 3d c6 5a 57 be 80 0a 0d 3c 8e 90 4a 3c
       0.07267216 -0.21030721 0.00860846 0.012363566
000030 2c ca 8c bd a2 71 36 bd f4 4b 4d be 16 28 ec 3d
       -0.06874499 -0.044541962 -0.20048505 0.11531083

layers.2.weight f4 [16]
000000 00 00 80 3f cd cc 8c 3f 00 00 80 3f f0 4b 7e be
       1.0 1.1 1.0 -0.24833655
000010 00 00 80 3f 00 00 80 3f 00 00 80 3f 00 00 80 3f
       1.0 1.0 1.0 1.0
000020 00 00 80 3f 00 00 80 3f 00 00 80 3f 68 66 66 3f
       1.0 1.0 1.0 0.9000001
000030 00 00 80 3f 00 00 80 3f 00 00 80 3f e0 43 af 3f
       1.0 1.0 1.0 1.3692589

layers.2.bias f4 [16]
000000 72 a8 14 3e 8d 65 71 3d 24 d4 55 bc ab 7b f3 3d
       0.14517382 0.058934737 -0.013051067 0.11888822
000010 bc 6f 06 3f ce ca 87 be 71 09 11 3e e4 5e 8e 3c
       0.52514243 -0.26521915 0.14163758 0.017379232
000020 79 3e 51 3e db c7 d4 3e 07 a6 eb be 86 82 26 be
       0.20433988 0.41558728 -0.46025106 -0.16260728
000030 64 7a 88 be 11 4b 85 3e 2e 8a 4a be e4 02 c9 be
       -0.26655877 0.26033834 -0.19779274 -0.39260018

layers.2.running_mean f4 [16]
000000 04 00 00 00 04 00 00 00 04 00 00 00 62 df 11 43
       6e-45 6e-45 6e-45 145.87259
000010 00 00 00 00 00 00 00 00 00 00 00 00 04 00 00 00
       0.0 0.0 0.0 6e-45
000020 04 00 00 00 04 00 00 00 00 00 00 00 04 00 00 00
       6e-45 6e-45 0.0 6e-45
000030 00 00 00 00 00 00 00 00 04 00 00 00 04 00 00 00
       0.0 0.0 6e-45 6e-45

layers.2.running_var f4 [16]
000000 04 00 00 00 04 00 00 00 04 00 00 00 85 64 d1 31
       6e-45 6e-45 6e-45 6.0941283e-09
000010 04 00 00 00 04 00 00 00 04 00 00 00 04 00 00 00
       6e-45 6e-45 6e-45 6e-45
000020 04 00 00 00 04 00 00 00 04 00 00 00 04 00 00 00
       6e-45 6e-45 6e-45 6e-45
000030 04 00 00 00 04 00 00 00 04 00 00 00 04 00 00 00
       6e-45 6e-45 6e-45 6e-45

layers.3.weight f4 [32, 16, 5, 5]
000000 f4 7d 39 bf 8e c0 2c bf a8 7f 33 bf 30 ce 38 bf
       -0.72457814 -0.67481315 -0.7011666 -0.7218962
000010 36 f4 3c bf 2a 24 31 bf 3c 9a 3d bf 16 40 34 bf
       -0.73810136 -0.69195807 -0.7406347 -0.7041029
000020 52 27 34 bf f0 83 36 bf 8c 17 26 bf c0 f3 2e bf
       -0.703725 -0.7129507 -0.6487968 -0.68340683
000030 b8 ca 31 bf 8e 58 39 bf d4 78 36 bf e2 74 37 bf
       -0.6944995 -0.7240075 -0.7127812 -0.71662724
000040 56 76 26 bf 10 69 37 bf 8c c4 38 bf e6 89 31 bf
       -0.65024316 -0.7164469 -0.72174907 -0.6935104
000050 a0 d2 38 bf 86 e8 2a bf a2 04 39 bf 64 3f 32 bf
       -0.7219639 -0.6676105 -0.72272694 -0.69627976
000060 2c 51 39 bf 98 6c 92 bc 34 da 9d 3c 28 3b 4b 3c
       -0.72389483 -0.017874047 0.019269086 0.012404241
000070 94 10 fd 3c b4 ba 03 bd c0 00 e5 ba 68 b2 63 3c
       0.030891694 -0.032160476 -0.0017471537 0.013897516
000080 30 e8 a4 bb 48 1e 45 bc 77 da 6b 3e 08 9c 3d bc
       -0.0050325617 -0.012031145 0.23032556 -0.011572845
000090 f4 17 9b 3c 28 24 2a 3c 8c 40 94 3c 54 30 16 bd
       0.01893232 0.010384597 0.018097185 -0.036667183
0000a0 34 ec ab 3c cc 20 e1 3c 44 c2 21 bd f4 b8 ab 3c
       0.020986654 0.02748146 -0.039491907 0.020962216
0000b0 c8 96 4d bc 9c 63 31 bd de 96 81 bd 0c a9 6b bd
       -0.012548156 -0.043307886 -0.06327604 -0.057534263
0000c0 30 e0 ed bb 80 4e 41 3a 8e 31 bd be 44 11 a7 be
       -0.0072593912 0.0007374063 -0.3695187 -0.3263036
0000d0 68 ed c6 be 24 2f a3 be ca e4 ab be b2 7d bc be
       -0.38853002 -0.31871903 -0.3357299 -0.36814648
0000e0 4c ac a5 be 20 94 b2 be d0 db d2 be b0 72 c8 be
       -0.32358015 -0.34878635 -0.4118333 -0.3915
0000f0 78 42 c7 be 84 07 ad be b0 ea ca be bc e4 a7 be
       -0.389179 -0.33794796 -0.39632177 -0.32791698
000100 b6 77 ba be 26 77 ab be dc 2d c4 be 10 7f be be
       -0.36419457 -0.3348934 -0.38316238 -0.37206316
000110 9e 1f bd be 8a db cf be 64 a3 ac be 58 db a1 be
       -0.36938184 -0.40597183 -0.33718407 -0.31612659
000120 84 3d c8 be 18 65 a8 be f0 80 d1 be 60 65 d4 be
       -0.39109433 -0.32889628 -0.40918684 -0.41483593
000130 4a 7c fb be 4e 94 ee be 7a 96 58 bf ff 49 3e 3e
       -0.49118263 -0.46597522 -0.8460461 0.18582915
000140 aa 9a d6 be ca c9 d8 be 28 46 e7 be 12 90 6f bf
       -0.41914874 -0.42341453 -0.45170712 -0.9357921
000150 1b b5 03 bf 60 88 e6 be 72 46 dd be fe 93 e9 be
       -0.5144822 -0.4502592 -0.43217808 -0.45620722
000160 5a 40 47 bf 5c f6 33 bf 64 58 eb be ae d6 f5 be
       -0.7783257 -0.7029779 -0.45965874 -0.4801535
000170 8e 58 de be d2 92 2f bf 3e ae 38 bf 56 4c db be
       -0.43426937 -0.68583405 -0.7214087 -0.42831677
000180 78 dc f8 be 36 cb e4 be f8 af 22 bf f1 d9 83 bf
       -0.48605704 -0.44686288 -0.63549757 -1.0300885
000190 64 ff 9c 3e 44 7e 9d 3e 28 31 8d 3e dc 82 a9 3e
       0.30663598 0.30760396 0.27576566 0.3310765
0001a0 08 87 b4 3e 64 00 91 3e 96 8b 8a 3e a8 2d aa 3e
       0.3525927 0.2832061 0.2705962 0.33237958
0001b0 44 cb af 3e b0 8a a6 3e 42 80 a3 3e c0 20 8d 3e
       0.34334767 0.32527685 0.3193379 0.2756405
0001c0 92 6a 9d 3e 74 f5 ac 3e 76 ee 8a 3e 84 38 a8 3e
       0.3074537 0.33781016 0.27135056 0.32855618
0001d0 28 ac ad 3e c0 41 97 3e 56 14 9f 3e a6 3f 9f 3e
       0.33920407 0.2954235 0.31070203 0.31103247
0001e0 ce 48 8b 3e 72 63 a1 3e 3c 75 89 3e b0 0e 91 3e
       0.27203983 0.31521183 0.26847255 0.28331518
0001f0 4a 60 90 3e 54 c1 61 bf 0f ce 64 bf e4 eb 52 bf
       0.28198463 -0.8818562 -0.8937692 -0.8239119
000200 9a cd 62 bf a6 20 59 bf c2 6a 67 bf 12 52 68 bf
       -0.88594973 -0.8481544 -0.90397274 -0.9075023
000210 6c 95 53 bf 5e 5d 63 bf 06 e4 56 bf 74 73 58 bf
       -0.82649875 -0.8881434 -0.83941686 -0.8455117
000220 96 c4 5c bf 66 3b 59 bf 6f f4 56 bf 4a fe 5b bf
       -0.86237466 -0.8485626 -0.83966726 -0.8593489
000230 27 5e 54 bf 16 7f 52 bf 35 3d 5a bf c3 46 65 bf
       -0.82956165 -0.8222517 -0.85249645 -0.895611
000240 46 c1 57 bf 09 08 64 bf ea 78 66 bf db ab 65 bf
       -0.84279287 -0.8907476 -0.9002825 -0.89715356
000250 20 8f 51 bf 49 8b 59 bf 29 a3 df 3e 79 e2 d0 3e
       -0.81859016 -0.8497816 0.4367917 0.40797785
000260 65 48 e2 3e 95 a3 d7 3e ed b1 d8 3e 6d 0e d8 3e
       0.44195858 0.4211699 0.42323247 0.42198506
000270 65 cf ed 3e 59 9c ec 3e f7 9d c8 3e 99 35 dd 3e
       0.46447292 0.46213034 0.39183018 0.43204954
000280 17 1e c9 3e ad d6 d6 3e cd 95 e5 3e b9 5c dc 3e
       0.3928077 0.4196066 0.4484085 0.43039492
000290 05 1a f5 3e 25 e7 eb 3e b4 a0 c4 3e 0d 77 e8 3e
       0.47871414 0.46074787 0.38403857 0.4540333
0002a0 59 af da 3e 41 30 e2 3e 85 16 cb 3e 13 29 c9 3e
       0.42711905 0.4417744 0.3966562 0.3928915
0002b0 9c f8 c4 3e 91 95 d8 3e 8d 04 ce 3e ca 71 da be
       0.38470924 0.4230161 0.40237847 -0.4266494
0002c0 50 74 e9 be de 73 f0 be c2 57 e2 be ba 6f fc be
       -0.45596552 -0.469634 -0.4420758 -0.4930399
0002d0 b4 93 dd be d6 66 e8 be 86 7b e7 be 00 0f da be
       -0.4327675 -0.45390958 -0.45211428 -0.4258957
0002e0 c6 69 ee be 1a d4 d0 be 94 59 f0 be cc 26 ef be
       -0.46565074 -0.4078682 -0.46943343 -0.46709287
0002f0 00 64 d9 be f0 7a 01 bf 64 1e d3 be 5e ea d0 be
       -0.42459106 -0.5057821 -0.41234124 -0.40803808
000300 72 2e f0 be 8c 28 d5 be e7 ad 00 bf b4 84 f4 be
       -0.46910435 -0.41632497 -0.50265354 -0.47757494
000310 4e 6b e3 be 72 37 f7 be 98 e0 e6 be e0 de da be
       -0.44417804 -0.4828449 -0.45093226 -0.42748165
000320 bb 18 bf 3e 71 2a cc 3e 6b e4 ca 3e 27 45 c6 3e
       0.37323555 0.3987613 0.39627394 0.38724634
000330 2f 51 d5 3e e3 6f d0 3e ad f2 e8 3e e7 4a d2 3e
       0.416635 0.40710363 0.45497647 0.4107277
000340 0b c9 d4 3e c5 d7 df 3e e7 2c d6 3e 65 05 f0 3e
       0.41559634 0.43719307 0.41831133 0.46879116
000350 01 9a e4 3e 5d f6 e1 3e 61 56 c9 3e 51 af dc 3e
       0.44648746 0.44133273 0.39323714 0.43102506
000360 89 e5 de 3e 19 99 dc 3e df 46 d8 3e 99 cc e9 3e
       0.43534496 0.43085554 0.4224157 0.45663908
000370 e5 03 cd 3e 09 c6 dd 3e 55 73 be 3e 21 06 e5 3e
       0.40042034 0.4331515 0.37197366 0.44731238
000380 b5 43 d9 3e fc 82 9a 3f e2 c3 9e 3f e4 23 9b 3f
       0.4243447 1.2071223 1.2403529 1.2120328
000390 8e 31 a4 3f ca a5 a1 3f a6 90 a0 3f 9e a5 a3 3f
       1.2827623 1.262872 1.2544143 1.2784917
0003a0 22 cb 9a 3f 00 fa 9e 3f b6 29 99 3f aa b2 a0 3f
       1.2093241 1.2420044 1.1965854 1.2554524
0003b0 00 de 9e 3f 14 74 99 3f 14 35 98 3f de 13 98 3f
       1.2411499 1.1988549 1.1891198 1.1881063
0003c0 40 11 98 3f 58 ce a0 3f bc af 9e 3f a4 9d 9f 3f
       1.1880264 1.2562971 1.239738 1.2469983
0003d0 88 ee 9c 3f b6 2b 98 3f 04 c9 97 3f 88 22 9a 3f
       1.2260294 1.188834 1.185822 1.2041788
0003e0 9e cb 97 3f 00 c2 9a 3f f8 82 30 bd 98 32 3b bd
       1.1859014 1.2090454 -0.04309365 -0.045702547
0003f0 68 f9 33 bd 68 b5 46 bc d0 a6 a5 bd c0 55 91 bd
       -0.043939024 -0.012128212 -0.080884576 -0.07096434

layers.3.bias f4 [32]
000000 ec 36 da be 92 2c ec be 15 61 6a be 21 0d 0b bf
       -0.42620027 -0.46127754 -0.22888596 -0.5431691
000010 48 77 83 bf c0 e9 fb be 46 6c 1c bf 78 3d f0 bd
       -1.0270777 -0.49201775 -0.6110271 -0.11730474
000020 34 c0 2d 3f d8 59 ea 3f e4 7d 83 be a0 10 0d be
       0.67871404 1.8308668 -0.25681984 -0.13775873
000030 cf 3c a5 3f 49 2c fd be 7f 49 1c bf 88 aa 25 bf
       1.2909182 -0.4944785 -0.61049646 -0.64713335
000040 5a e6 11 be 12 41 d8 3d 83 0b b5 bf b3 a1 82 bf
       -0.14248028 0.10559286 -1.4144138 -1.0205597
000050 74 50 62 bd d3 f7 f3 3d 8d 51 24 bf 6d c1 42 3e
       -0.055252507 0.11912503 -0.64186937 0.19019099
000060 19 31 3e bf fe 43 84 be 67 97 37 bf cc 53 00 3f
       -0.7429367 -0.25833124 -0.71715397 0.50127864
000070 19 17 17 bf 61 92 4c 3f ec 75 b4 3c 6e ba 4a 3d
       -0.5901962 0.79910856 0.022028886 0.0494942

layers.5.weight f4 [32, 32, 5, 5]
000000 31 b8 dc bd 40 28 ad bd 3a d5 ae bd 2a 86 90 bd
       -0.10777319 -0.08454943 -0.085367635 -0.0705684
000010 d2 07 db 3d ac 4e 8a bd 15 d1 c1 bd 8a e9 ae bd
       0.10694851 -0.06753287 -0.09463707 -0.08540638
000020 0f e3 b7 bd 00 d9 91 ba cd 6b 00 be da d9 a9 bd
       -0.08978855 -0.0011127293 -0.12541123 -0.08293505
000030 a3 b6 d0 bd e8 db 8c bd 40 15 9d bd 21 3d cf bd
       -0.10191085 -0.06877881 -0.07670069 -0.10119081
000040 88 06 87 bd 98 92 06 be d1 36 cb bd cc 11 ed bc
       -0.065930426 -0.13141859 -0.09922565 -0.02893915
000050 a8 8d ec bd 6e 41 f0 bd 5d 7a 03 be 5d 51 03 be
       -0.11550456 -0.1173123 -0.12839647 -0.12824006
000060 78 0d 2a 3c 76 2a ea be ec 83 f4 be 32 53 ea be
       0.010379188 -0.4573552 -0.47756898 -0.45766598
000070 0e 2f ec be 82 b3 8d be ea 2c e1 be 60 d6 da be
       -0.4612965 -0.27676016 -0.4397958 -0.4274168
000080 7a 2d ee be d4 3b f0 be fe 16 27 3e 90 80 eb be
       -0.4651907 -0.46920645 0.16317365 -0.45996523
000090 12 4a de be 16 30 dc be f6 02 ef be 44 df 3e be
       -0.43415886 -0.43005437 -0.46681947 -0.18639857
0000a0 62 08 e4 be ce d2 df be 5a 62 f9 be e2 78 e2 be
       -0.44537646 -0.4371552 -0.4870785 -0.4423285
0000b0 06 04 ce be ae b4 f1 be ce 9f e0 be b2 95 f0 be
       -0.40237445 -0.4720816 -0.4387192 -0.46989208
0000c0 9e 86 e9 be e1 62 ed be de 10 22 be 1c 79 53 be
       -0.45610517 -0.463645 -0.15826747 -0.20651668
0000d0 aa 35 4b be da 72 30 be 83 40 ff 3e 78 cd 4d be
       -0.1984469 -0.17231312 0.49853906 -0.20097911
0000e0 2e ed 3a be c8 fb 4c be e3 b8 19 be c6 c7 f6 3d
       -0.1825454 -0.20017922 -0.15011935 0.120498225
0000f0 1c bb 54 be 48 a5 43 be fe 9b 45 be ec 82 53 be
       -0.20774502 -0.19106019 -0.19297788 -0.20655411
000100 d7 1f 9d be c1 39 13 be 06 d5 3d be 58 04 29 be
       -0.30688354 -0.143775 -0.18538293 -0.16505563
000110 a1 8f 14 be e1 15 54 be fe a2 46 be c1 37 39 be
       -0.14507915 -0.20711471 -0.19398114 -0.18087675
000120 da c5 27 be 0a df 54 be 11 34 33 be 9e c7 13 3f
       -0.16384068 -0.20788208 -0.1750033 0.57726467
000130 ad 76 06 3f db 97 0c 3f 22 98 10 3f 8c 7a e1 3e
       0.52524835 0.54919213 0.56482136 0.44038808
000140 18 8e 0d 3f 24 35 12 3f 53 98 0b 3f 26 e9 08 3f
       0.5529494 0.57112336 0.54529303 0.53480756
000150 52 05 ba 3d d8 b9 0e 3f e0 a4 02 3f 94 ca 0f 3f
       0.09083046 0.55752325 0.5103283 0.56168485
000160 ad 71 04 3f 56 74 f0 3d b4 8e 0f 3f 60 06 10 3f
       0.51735955 0.11740939 0.5607712 0.5625973
000170 f8 30 04 3f 3b aa 05 3f 44 6d d9 3e 99 78 02 3f
       0.5163722 0.52212876 0.42466176 0.5096527
000180 e5 3e 04 3f 09 9e 0a 3f fd 34 0a 3f f6 05 98 3e
       0.5165847 0.5414739 0.53987104 0.29692048
000190 60 7f df 3d 2b c0 a8 3d 34 00 bf 3d 9e a6 c4 3d
       0.10912967 0.08239778 0.093262106 0.09602092
0001a0 a0 d1 f9 bd ae b7 cc 3d 34 6b bd 3d ef 59 b1 3d
       -0.12198186 0.099959716 0.09248963 0.086597316
0001b0 76 c4 c1 3d 5b a1 8b bd 8b 5a a9 3d a0 a2 c8 3d
       0.094613 -0.068178855 0.08269223 0.09796643
0001c0 0c 82 f2 3d d1 93 a7 3d 1c 3a 36 be 98 cf cb 3d
       0.11841211 0.081824906 -0.17795604 0.09951705
0001d0 0f 51 a6 3d fc 07 e1 3d 2d 54 9f 3d 48 42 a9 be
       0.081209294 0.10987851 0.07779727 -0.3305838
0001e0 ee b7 5f 3d 0a a6 cd 3d 63 53 a0 3d d4 c0 f0 3d
       0.05461877 0.10041435 0.07828405 0.11755529
0001f0 d3 fe 43 be 26 be 91 be c8 4b aa be 9e 35 91 be
       -0.19140176 -0.28465384 -0.33260942 -0.2836122
000200 5a 2d 9c be 5d 45 0d bf 36 72 99 be b2 d2 98 be
       -0.3050335 -0.55183965 -0.2996995 -0.29848248
000210 f4 8e ad be 08 eb ad be 00 c1 dd be a4 61 8f be
       -0.33898127 -0.33968377 -0.4331131 -0.2800418
000220 82 3d 9e be d8 83 ad be 8c 48 90 be f4 c5 e7 be
       -0.30906302 -0.3388965 -0.2818035 -0.45268214
000230 30 2a a4 be 7a 29 8e be 1e 12 9e be 02 07 92 be
       -0.32063437 -0.2776602 -0.30873197 -0.28520972
000240 5e 4f c2 be 8e d9 ae be 76 e1 a0 be 32 9f 8f be
       -0.37951177 -0.34150356 -0.31422013 -0.28051144
000250 ba 7c a3 be 5a d0 f1 be 98 47 b0 bb c0 fe 90 3b
       -0.31931096 -0.47229272 -0.0053796284 0.0044249
000260 e0 a0 d9 3c 91 a1 05 bd 0c fc ba 3d 94 69 a2 3c
       0.026565969 -0.032624785 0.091301054 0.019825734
000270 c0 5e 0b 3c b2 7a 6d bc be 49 fb 3c a1 3e cf 3d
       0.008506477 -0.014494585 0.030674811 0.101193674
000280 15 d8 82 bc 64 41 0c bd 74 d3 d4 3c 94 42 36 3c
       -0.015972177 -0.03424205 0.025979735 0.011124272
000290 60 c3 b5 3b aa 19 ea bc 87 bd e9 bc 0c 80 90 bc
       0.005546972 -0.02857669 -0.028532756 -0.017639183
0002a0 60 ad c1 bc 4c 8f f5 3d ef 05 b5 bc 04 b1 ca 3c
       -0.023642242 0.11990222 -0.022097556 0.02474261
0002b0 94 39 34 3c 3e 18 9a bc 5a 13 a5 3d 5b 06 a0 bd
       0.011000056 -0.018810388 0.08060332 -0.07813712
0002c0 9d 43 a1 bd e2 07 0b be ba b3 10 be a6 db 31 be
       -0.07874224 -0.13577226 -0.1413106 -0.17368945
0002d0 53 96 e2 bd 9e ef 14 be 7d d1 e3 bd 3b 4d af bd
       -0.11063828 -0.14544532 -0.11123941 -0.085596524
0002e0 b0 3a cf be d3 69 e7 bd bf 21 e0 bd 96 cb 11 be
       -0.40474463 -0.11299481 -0.109439366 -0.14237818
0002f0 58 bd 0f be f1 5f ba be d2 e7 00 be a5 a5 cb bd
       -0.14037073 -0.36401322 -0.12588432 -0.099437036
000300 ed b2 fb bd e9 4d e3 bd d8 d6 8d be 9f 52 a1 bd
       -0.12289987 -0.110988446 -0.27702975 -0.07877087
000310 20 ce 0a be 71 50 d1 bd 0c 1c 11 be 4f 2f 51 be
       -0.13555193 -0.10220421 -0.14170855 -0.20428203
000320 b5 3b ef 3e e1 5d eb 3e 01 fa d5 3e 55 f7 e4 3e
       0.4672524 0.4597006 0.417923 0.4471995
000330 47 97 12 3f 29 4d da 3e c1 83 e9 3e bd c8 d5 3e
       0.5726208 0.42636994 0.45608333 0.41754714
000340 79 f0 e4 3e 01 90 3a 3e a1 73 e9 3e d8 35 e7 3e
       0.44714716 0.18218996 0.4559603 0.45158267
000350 d1 96 cf 3e d9 f3 ce 3e a5 c6 4c 3c 25 f1 ce 3e
       0.4054475 0.40420416 0.012498532 0.40418354
000360 15 4e d7 3e 01 fe ec 3e d5 9d eb 3e 73 b9 02 be
       0.4205176 0.4628754 0.46018854 -0.12766056
000370 cd 03 d0 3e 55 d3 ee 3e bd be de 3e 15 e2 e9 3e
       0.406279 0.4664561 0.43504897 0.456803
000380 6a c8 bf 3c 20 62 61 3e ce 57 7d 3e f0 51 6e 3e
       0.023410995 0.22010088 0.24740526 0.23273444
000390 4f b7 80 3e ec 5e 41 3f a1 9c 4c 3e 2a e2 86 3e
       0.25139853 0.75535464 0.19981624 0.26344424
0003a0 43 d0 80 3e 94 e7 7c 3e a4 e1 45 3e 38 db 75 3e
       0.2515889 0.24697715 0.19324356 0.24009407
0003b0 f6 58 85 3e 84 35 66 3e 47 1a 5d 3e dd 6f a4 bd
       0.26044434 0.22481352 0.21592055 -0.08029149
0003c0 ca 84 86 3e 50 8f 69 3e a1 b9 4b 3e 44 1b 65 3e
       0.26273185 0.22808576 0.1989503 0.22373682
0003d0 18 d2 02 bf 2d 3e 54 3e 1f 24 5d 3e e8 1b 7a 3e
       -0.5110183 0.20726843 0.2159581 0.24424708
0003e0 28 97 6e 3e 56 88 d9 bd 86 e7 ae bd f1 7f 02 be
       0.23299849 -0.10621707 -0.08540253 -0.12744118
0003f0 67 ab ab bd 66 e8 88 bd b8 e3 c6 bc c2 e4 09 be
       -0.08382302 -0.066849515 -0.024278507 -0.1346617

layers.5.bias f4 [32]
000000 c4 79 7b 3e 1a aa aa be d7 c5 97 be 5b c6 9b be
       0.24558169 -0.33332902 -0.29643127 -0.3042477
000010 30 fc 67 be 57 f4 f7 3e 60 b5 21 be f8 01 df be
       -0.22654796 0.48428604 -0.15791845 -0.4355619
000020 b2 f3 1f bd 4a 56 b7 bd 47 57 91 3d 40 78 10 be
       -0.039050765 -0.08952005 0.07096725 -0.14108372
000030 1e 3f 8a bd c3 07 ed 3d 49 aa 1c 3f b0 3a 91 be
       -0.0675032 0.11573746 0.61197335 -0.28365088
000040 b6 30 d5 be 8e 7d 98 be 7a f0 c9 be 40 e8 f2 bb
       -0.41638726 -0.2978329 -0.39441282 -0.0074129403
000050 a6 2a da be b0 fe 08 be 39 fd 1a bf 40 5b ff bc
       -0.42610663 -0.13378406 -0.6054264 -0.031171441
000060 1a f6 a5 3e b9 ba e9 bd ba ba b9 3e 65 0b ba 3f
       0.32414323 -0.11412568 0.36275274 1.4534727
000070 10 4e 23 be b0 d7 73 be b2 3d 71 3f 64 14 4d be
       -0.15947747 -0.23812747 0.94234765 -0.2002731

layers.7.weight f4 [32]
000000 ec e9 bd 3f 6c 4e 83 3f c7 66 66 3f 1a 00 80 3f
       1.4837012 1.0258307 0.90000576 1.0000031
000010 a4 07 65 3f f2 23 ad 3f 68 66 66 3f 74 66 66 3f
       0.89464784 1.3526595 0.9000001 0.9000008
000020 00 00 80 3f 00 00 80 3f 5b 76 cd 3e 00 00 80 3f
       1.0 1.0 0.4012936 1.0
000030 72 f2 96 3f dc 59 37 3f 6a 1e 39 3e 66 ec 52 3f
       1.1792738 0.7162149 0.18078008 0.82391965
000040 e5 36 90 3f 89 7c 83 3f 18 6c 49 3f 00 00 80 3f
       1.1266752 1.027238 0.7868056 1.0
000050 a6 4b 93 3f 66 66 66 3f 05 cf 93 3f df 74 40 3f
       1.1507461 0.9 1.1547552 0.7517833
000060 cb dd c6 be dd cc 4c 3f e4 b4 87 3f 52 5f 94 3f
       -0.3884109 0.80000097 1.0602078 1.159159
000070 00 00 80 3f 00 00 80 3f 49 18 c8 3f 00 00 80 3f
       1.0 1.0 1.5632411 1.0

layers.7.bias f4 [32]
000000 3f 50 98 3c bd 7a 02 bc aa ea 10 3b de 2d df 3a
       0.018592952 -0.007963833 0.0022112527 0.0017027219
000010 90 9d 27 3b 1f cd e9 3a ab f2 c8 3c bc 2d 73 bd
       0.0025576092 0.001783762 0.024529776 -0.059369788
000020 48 24 03 3a a4 ce e5 ba 82 a7 1a bc 73 d9 64 3b
       0.000500266 -0.0017532897 -0.009439351 0.003491965
000030 f0 ec 0c bb b4 bb dc bd 04 2a 63 3b d0 9c 2e 3c
       -0.002150353 -0.10777989 0.0034662494 0.010657504
000040 c6 11 5f 3d ae dd 00 3b ea 70 fc 3b b5 06 9e bc
       0.05446031 0.0019663381 0.00770389 -0.019290308
000050 0d 90 a2 3b a6 6c e2 3b c7 f8 5f 3c 2a 14 8f 3b
       0.00496102 0.0069099246 0.013670153 0.0043664174
000060 cc b2 16 bd 75 24 61 3c 22 60 81 bc d6 86 3a bd
       -0.036791608 0.013741602 -0.01579291 -0.045538746
000070 ee 64 ba 3c d0 6d ad 3c e3 ba e3 3c b5 4c ab bb
       0.022753205 0.021170527 0.027799075 -0.00522765

layers.7.running_mean f4 [32]
000000 04 00 00 00 a3 7c c2 44 04 00 00 00 04 00 00 00
       6e-45 1555.8949 6e-45 6e-45
000010 30 f6 38 13 04 00 00 00 04 00 00 00 04 00 00 00
       2.3345445e-27 6e-45 6e-45 6e-45
000020 04 00 00 00 04 00 00 00 04 00 00 00 04 00 00 00
       6e-45 6e-45 6e-45 6e-45
000030 04 00 00 00 04 00 00 00 1c be 61 45 04 00 00 00
       6e-45 6e-45 3611.8818 6e-45
000040 8d 3e fc 15 04 00 00 00 6b 47 a8 16 04 00 00 00
       1.0188068e-25 6e-45 2.7186935e-25 6e-45
000050 04 00 00 00 04 00 00 00 47 17 57 15 04 00 00 00
       6e-45 6e-45 4.3437267e-26 6e-45
000060 04 00 00 00 04 00 00 00 82 8d 0b 11 9f 18 86 45
       6e-45 6e-45 1.1008772e-28 4291.0776
000070 04 00 00 00 04 00 00 00 f3 d6 67 45 04 00 00 00
       6e-45 6e-45 3709.4343 6e-45

layers.7.running_var f4 [32]
000000 04 00 00 00 17 64 86 39 04 00 00 00 04 00 00 00
       6e-45 0.00025633044 6e-45 6e-45
000010 b2 1c 1c 11 04 00 00 00 04 00 00 00 04 00 00 00
       1.2315073e-28 6e-45 6e-45 6e-45
000020 04 00 00 00 04 00 00 00 04 00 00 00 04 00 00 00
       6e-45 6e-45 6e-45 6e-45
000030 04 00 00 00 04 00 00 00 9a 5c d3 38 04 00 00 00
       6e-45 6e-45 0.000100785124 6e-45
000040 98 a6 09 19 04 00 00 00 04 00 00 00 04 00 00 00
       7.116377e-24 6e-45 6e-45 6e-45
000050 04 00 00 00 04 00 00 00 04 00 00 00 04 00 00 00
       6e-45 6e-45 6e-45 6e-45
000060 04 00 00 00 04 00 00 00 f0 5d b8 09 38 4b a2 38
       6e-45 6e-45 4.4384727e-33 7.7387725e-05
000070 04 00 00 00 04 00 00 00 3b 02 db 39 04 00 00 00
       6e-45 6e-45 0.00041772597 6e-45

leaner1.weight f4 [32, 64]
000000 9a 6a 14 3e 2f ac e9 3d 1d 27 d4 bd 17 62 9c 3e
       0.1449379 0.114097945 -0.10359023 0.30543587
000010 fe 51 c2 3c f9 8e 91 bd 9a d2 24 bd 40 a4 b3 bd
       0.023720738 -0.07107348 -0.040239908 -0.087715626
000020 20 8c bc bc 13 f1 c6 be 07 80 9d bd 46 d6 b0 bd
       -0.023016036 -0.388558 -0.07690435 -0.086346194
000030 13 93 a6 bd a0 3b dc bd 56 cc 3c 3d b1 b6 58 3e
       -0.08133521 -0.1075356 0.046093307 0.21163441
000040 61 06 4f 3e 44 57 21 bd ff 82 16 3e fc 3a 8b 3d
       0.20217277 -0.039389864 0.14698409 0.0679836
000050 39 24 98 bd d7 7f 49 3d 22 3d db bb 6c 77 59 be
       -0.07428784 0.049194183 -0.006690637 -0.21236962
000060 40 ba a2 3c cd 9d 5c 3d 37 d7 1f be 9d 99 89 be
       0.019864202 0.053861428 -0.15609442 -0.2687501
000070 a9 3b 19 3e 8f 98 bb be 92 1e 83 3d 32 f1 b1 3d
       0.14964165 -0.3663983 0.06402315 0.086885825
000080 0b bd cb 3e cd 28 23 be 3f 85 56 3e 4f c1 81 3d
       0.39792666 -0.15933533 0.20949267 0.06335699
000090 e3 93 ba 3d 8e 35 96 be 22 e0 8f be 4f 34 46 be
       0.091102384 -0.29337734 -0.28100687 -0.19355892
0000a0 0e 89 f6 bc e4 bd 9e 3d a8 0f 3d 3d b2 d1 ba 3d
       -0.03009465 0.077510625 0.04615751 0.091220275
0000b0 80 81 fe 3a c0 95 a9 bb fc 1a 1a 3e 03 15 06 3e
       0.0019417256 -0.0051753223 0.15049356 0.13093953
0000c0 b6 15 fb 3d 73 a5 ab 3e 18 11 29 3d 5c af 1b 3d
       0.122600004 0.33524665 0.041276067 0.038009033
0000d0 d9 1c 3c 3d f0 50 82 bd 2e 21 13 be e8 04 40 be
       0.04592595 -0.06363094 -0.14368126 -0.18751872
0000e0 36 2a 87 bd 1b 0a 6e bd b6 7d 1d 3e 58 2d 57 bd
       -0.06599848 -0.058115106 0.15379986 -0.052533478
0000f0 c9 99 2b be 2b 94 12 3f db f9 05 3e 74 53 36 bd
       -0.16757883 0.57257336 0.13083594 -0.04451318
000100 28 fb a9 be f4 39 f2 3e 78 81 8a ba b8 ef 7b 3b
       -0.3319943 0.4730984 -0.0010567149 0.0038442444
000110 2f 64 c1 3d 44 49 a3 bd c1 78 48 3d 30 cf 0e 3d
       0.09442937 -0.07972959 0.048943285 0.03486556
000120 eb d7 88 bd 08 98 b5 3d 08 f7 c7 3d 28 31 c6 bc
       -0.06681808 0.08866888 0.09763914 -0.024193361
000130 15 cd ea bd cc 0d 3b bd a7 b1 13 bd 58 26 23 3d
       -0.114648975 -0.045667455 -0.036058094 0.03983149
000140 98 64 a3 bc 39 50 0b 3e 14 43 6d 3d 0e 8a 05 bc
       -0.019945428 0.13604821 0.0579253 -0.008150591
000150 e8 7d e3 ba ef ff 98 bc 2a d4 66 3c e3 2e d7 3c
       -0.0017356249 -0.018676726 0.01408867 0.026267475
000160 29 a0 b6 3b 16 20 28 3c 46 21 09 bd 5e 4a bd bd
       0.005573292 0.010261556 -0.033478998 -0.092427
000170 45 91 a1 3d 8d 35 af bd 9f be 98 3d 93 c5 a5 bd
       0.07889036 -0.08555136 0.07458233 -0.08094325
000180 0c 78 82 3d 67 99 04 3e 3a 2b 17 be 03 2d 31 3e
       0.063705534 0.12949143 -0.14762583 0.17302327
000190 93 cf 8b be 27 0e 3a 3e 00 af 11 be 4c 77 76 3d
       -0.27306804 0.18169461 -0.14226913 0.060172364
0001a0 88 ee 1e be 6a 78 1c 3e ae 27 f8 bd cd 6a 8a 3d
       -0.1552068 0.1528031 -0.12116943 0.06758652
0001b0 d1 8e 1a be 88 b7 40 3e 30 84 c3 b9 a6 22 bc 3d
       -0.15093543 0.18820012 -0.00037291786 0.09186296
0001c0 60 0c c9 3b 60 32 02 3e 34 b6 c4 bd 74 c3 1f 3e
       0.0061355084 0.12714529 -0.09605065 0.15601903
0001d0 aa 7e ee bd 98 36 14 3c 68 7b 09 be a5 af b9 3d
       -0.11645253 0.009046219 -0.13425982 0.09066705
0001e0 46 35 69 3d 40 5e 87 b9 04 9f d3 bd 6c b7 b5 3d
       0.05693557 -0.00025819428 -0.10333064 0.088728756
0001f0 c2 88 98 3d db 84 c2 3c a6 71 a5 3d a4 1f 8f 3d
       0.074479595 0.023744991 0.08078317 0.06988457
000200 5b d9 22 3e 16 e3 28 3e e9 93 01 bf 20 5a db 3e
       0.15903227 0.16492876 -0.5061632 0.42842197
000210 fe c2 28 be 54 b2 55 bd 5d 58 56 3e af b9 a5 3e
       -0.16480634 -0.05217202 0.20932145 0.32368228
000220 0a ad 14 3e b9 83 20 3e 0b b4 9a 3d 93 b8 0d be
       0.14519134 0.15675248 0.07553872 -0.1383994
000230 5a f3 56 be 6a 28 6f be ca 4e 3f bd 6e ae 40 3d
       -0.20991269 -0.2335526 -0.046706 0.04704135
000240 48 05 53 ba 25 55 b6 bd e7 d9 bf bd b7 c2 9c bd
       -0.0008049798 -0.08902959 -0.093677334 -0.076543264
000250 bb 1c 1e be 7c 75 57 be 85 e2 1a bd 99 7c e2 bc
       -0.15440647 -0.2104091 -0.037813682 -0.027647303
000260 68 a0 4b 3e 0c bb 53 3d 5a 4d e5 3d 06 f6 d9 3d
       0.19885409 0.051692054 0.11196394 0.10642628
000270 a2 70 bc bd 83 a6 4b be 12 ef b7 3c 7a a8 07 bd
       -0.092011705 -0.19887738 0.022452865 -0.033119656
000280 91 b7 9c be 39 72 bd 3e e4 7e c6 bd 8d 4f 36 be
       -0.306088 0.37001207 -0.09692171 -0.17803784
000290 8f 41 85 3e 1b 5d 05 be f9 ac 38 3d d5 e5 e3 3d
       0.2602658 -0.13023798 0.045086835 0.11127821
0002a0 d1 5f 3b 3e 92 0b 82 3c e9 36 23 3e ef 18 7b bd
       0.1829827 0.015874658 0.15938915 -0.061303075
0002b0 b4 83 cd 3c ee 8f 57 bd cb a4 21 3e 90 d3 a4 bc
       0.025087215 -0.052627496 0.1578552 -0.020120412
0002c0 c1 6f ca 3e a0 ef 70 3e 86 24 07 3e f4 8e 28 3e
       0.39538386 0.2352891 0.13197526 0.16460782
0002d0 e8 19 99 3e 79 e6 81 bd 70 bd 46 3c 74 8c 83 be
       0.29902577 -0.06342787 0.012130126 -0.25693095
0002e0 8f 0d a3 bc e6 b4 d5 3c c0 13 33 3a 96 5d 45 be
       -0.019903926 0.026087236 0.0006831251 -0.19273981
0002f0 e4 3b 66 3e 76 b6 8a 3d 59 f7 f4 3d 22 4f 0c bd
       0.22483784 0.06773083 0.1196124 -0.034255154
000300 0c 21 01 bf fc 2c 57 3e 7a 46 60 bd 25 19 90 3d
       -0.5044105 0.21013254 -0.05475471 0.07036046
000310 2e 97 22 be 63 3f 80 bd 5c f3 fc bd ca 2d 86 3d
       -0.15877983 -0.0626209 -0.123511046 0.06551702
000320 4a 36 57 3e a2 91 3f be 62 a5 a2 bc 59 49 9c 3c
       0.21016803 -0.18707898 -0.019854251 0.019077944
000330 c7 a0 7b be 20 32 07 be fe 9c 63 3d a7 55 2d 3e
       -0.2457305 -0.13202715 0.05556964 0.16927205
000340 e1 c6 0f bd ad e1 03 be e2 93 8b be cc d2 4e be
       -0.035101775 -0.12879057 -0.27261263 -0.201976
000350 6a c2 06 bc 7b 74 35 3e ce 68 72 3d 93 f4 8d 3d
       -0.008225063 0.17720215 0.05918198 0.069314145
000360 ff b6 af bd 72 f3 aa bc 68 c4 cc 3d a8 e2 95 3d
       -0.085798256 -0.020868037 0.09998399 0.07318622
000370 40 e6 4b be e6 51 1c 3e 5f 75 b7 bd 45 c0 11 bd
       -0.19912052 0.15265617 -0.08957934 -0.035583753
000380 e3 83 9c 3e 66 3c 72 3e 93 64 93 bc 3f de 36 3e
       0.30569372 0.23655853 -0.017992293 0.17858218
000390 89 51 12 3d fe 3e 3d 3e 45 b8 99 3d 66 37 30 3d
       0.03572229 0.18481061 0.0750585 0.043021582
0003a0 18 e9 bc 3d 69 b2 a3 bd fa a2 a8 bd 22 65 ed bd
       0.092241466 -0.079930134 -0.0823421 -0.11591555
0003b0 ea c3 1c be 98 9a 46 be 19 e3 1b 3d 39 29 d6 3d
       -0.1530911 -0.1939491 0.038058374 0.10457081
0003c0 e9 ff a9 bd ff 34 d2 3d 2c 38 05 be 3c aa 9c 3c
       -0.08300764 0.102640145 -0.13009709 0.019124143
0003d0 72 c2 8b 3d 9c 85 d2 bd 41 15 31 be ce 61 16 3d
       0.06824197 -0.1027939 -0.17293264 0.036714368
0003e0 7b aa bc bd 24 35 ea 3d da 24 3f 3e a0 5e 01 bd
       -0.09212204 0.11435917 0.18666402 -0.031584382
0003f0 96 f5 17 bd 65 66 48 3d 58 6a 09 3e 10 20 86 3e
       -0.037099443 0.048925776 0.13419473 0.26196337

leaner1.bias f4 [32]
000000 ce a2 b2 bd 8b 10 0a 40 22 5b c6 bc 35 d9 83 3d
       -0.08722459 2.1572597 -0.024213377 0.06437913
000010 94 0f 80 3e e0 ed 08 40 ce fd 90 bd b4 7b c0 bb
       0.25011885 2.1395187 -0.070796594 -0.0058741216
000020 c8 dd c8 3c 33 70 ff 3d 86 60 a6 bc 5c f6 1e 40
       0.024519816 0.12472572 -0.020309698 2.4837866
000030 2e 07 fa 3f 0f 75 12 3e f7 0c 1d 40 75 5b 00 40
       1.9533441 0.14302467 2.4539163 2.005582
000040 34 56 16 c0 24 f7 56 3c fd 1b 12 40 f9 83 0a 3d
       -2.3490114 0.013120446 2.2829583 0.033817265
000050 41 df 12 c0 a2 68 96 3d cc 94 98 bd c0 93 c3 3d
       -2.2948763 0.07344176 -0.07450256 0.095496655
000060 29 a1 02 c0 72 20 41 be 15 54 08 3d 06 25 7c bd
       -2.0410864 -0.18860033 0.033283312 -0.061558746
000070 d9 82 8a be 78 1a b2 3c 9a 80 76 bf d6 9d 08 c0
       -0.27052954 0.021741137 -0.9628998 -2.1346335

leaner2.weight f4 [16, 32]
000000 df 13 f4 bd 41 d4 7e 3d 27 b1 1f be 7d e5 c2 3d
       -0.119178526 0.06221414 -0.15594922 0.09516428
000010 63 76 62 3e b2 d3 05 3e 2c 71 06 3e f3 42 a8 bd
       0.22115473 0.13069037 0.13129109 -0.082158946
000020 6a 8e 07 3d 7b 20 98 be ba 51 1f 3e 45 42 f2 bc
       0.0330948 -0.2971228 0.1555852 -0.029572615
000030 8b 55 a5 3c e6 0e a3 be 52 0f ed bd 00 d8 77 bb
       0.020182392 -0.31847304 -0.11575188 -0.0037817955
000040 2b cc e9 bd c3 7f c7 3d a3 40 40 bc ee 08 39 3d
       -0.11415895 0.097411655 -0.011734161 0.04517453
000050 97 0e ea 3d e4 55 a5 bd 16 dd 94 be 05 28 03 3f
       0.11428564 -0.08073023 -0.29074925 0.5123294
000060 b9 98 bf 3d 53 9f bd be 67 f5 14 3e 66 e0 07 be
       0.093553014 -0.37035617 0.14546739 -0.13269195
000070 b1 ae 74 bd 37 92 80 be 23 52 bf ba a5 83 e6 3b
       -0.05973691 -0.25111553 -0.0014596622 0.007034736
000080 13 52 fc bd 6a 31 f3 3c b6 7f c1 ba 5e c4 cb 3e
       -0.12320342 0.029686648 -0.0014762792 0.39798254
000090 cc a8 51 3d 17 92 5c bc 9a 99 c4 be f7 f4 56 3e
       0.051186368 -0.013462565 -0.3839844 0.20991884
0000a0 b1 83 ad 3e 6b 83 a6 3e 18 74 dd 3b 59 3d fc 3b
       0.33889535 0.3252214 0.006758224 0.007697743
0000b0 58 ef 10 bd ec c8 16 3e d0 10 e7 b9 fa 65 80 bc
       -0.035384506 0.14725083 -0.0004407228 -0.015673626
0000c0 aa 42 18 3d 05 18 b1 3e 98 58 31 be 0c 5c e5 3e
       0.03717295 0.34588638 -0.17318952 0.4479679
0000d0 06 45 bc 3d 81 e7 db be 85 36 44 3e 80 a9 ab bd
       0.09192853 -0.4295006 0.19161423 -0.08381939
0000e0 fb bd ff bd 10 6b 10 3c 94 f9 a2 3c 4b 94 ff 3c
       -0.12487408 0.008814588 0.019894399 0.031198641
0000f0 a8 b4 eb bd 1c 96 a4 3d 36 2e 74 3d 17 7f b4 bd
       -0.11509067 0.080364436 0.059614383 -0.08813303
000100 6c 3b 6a be 44 bb 8c 3f 30 e0 99 bd cd a3 59 3d
       -0.2287423 1.0994649 -0.075134635 0.05313473
000110 2f 2c 34 3e 52 f9 5a 3f c8 20 28 3e 47 37 2a 3c
       0.1759498 0.8553668 0.16418755 0.010389156
000120 64 c8 27 bd 3d 60 b3 bd a7 db b4 3d d1 aa 9e 3f
       -0.04096259 -0.0875859 0.08830958 1.2395879
000130 2b 55 6d 3f 08 38 da 3a 4e ab 88 3f ed c4 49 3f
       0.9270808 0.0016648779 1.0677278 0.7881611
000140 6c 76 a3 bf d8 55 19 bb 44 c1 93 3f 72 a3 d6 3d
       -1.2770514 -0.0023397114 1.1543355 0.104803935
000150 a8 81 88 bf 0e db 2b 3c dc 2c d9 bd 26 94 8c 3c
       -1.0664568 0.010489238 -0.10604259 0.017160486
000160 8e 87 5a bf c2 d6 a7 bc 14 0b 74 3d d8 2b 58 3c
       -0.8536309 -0.020488147 0.059580877 0.013194047
000170 8b 21 07 be 78 b8 72 bd cd d7 0b bf e4 7c 5e bf
       -0.1319639 -0.059257954 -0.5462616 -0.8690932
000180 c4 bc 95 be d3 52 22 3e 96 1e a6 3e 93 54 04 bc
       -0.2924558 0.15851907 0.3244521 -0.008076805
000190 60 89 cb 3d 17 b7 0b 3e 4c d4 39 be 12 30 ae 3e
       0.099383116 0.13644062 -0.18147391 0.3402105
0001a0 54 29 a2 bc cc e8 01 3e dc da 74 3e 32 f3 e3 3c
       -0.019795097 0.12686461 0.23911613 0.027825925
0001b0 7a a9 60 bd 39 dd a3 bd ad 5d e4 3c 0c cb 81 bd
       -0.054849125 -0.08001179 0.0278767 -0.06337556
0001c0 a0 87 90 3d 4d 09 5e 3c 8f 1a f2 3d d1 26 66 be
       0.070571184 0.013552022 0.11821472 -0.22475745
0001d0 c2 bc 45 bd ea 84 15 bd a1 4a 51 3e d1 4a 88 be
       -0.048275717 -0.03650371 0.20438625 -0.2661958
0001e0 a7 d5 c5 3d 7d da 4c 3e 64 c5 a5 bd 7c 67 0c be
       0.096598916 0.20005222 -0.0809429 -0.13711351
0001f0 59 19 81 bd 0a 38 61 3d fd 8c 4b be 08 74 ac bd
       -0.06303663 0.054985084 -0.19878002 -0.08420569
000200 c6 44 a2 3e c9 f5 55 be b0 54 ca ba b2 20 83 bd
       0.31693095 -0.20894541 -0.0015436616 -0.064027205
000210 9c 8c af 3e 16 33 5b bd de b8 bd 3c 46 12 10 bf
       0.34286964 -0.053515516 0.02315944 -0.56277883
000220 24 d5 3e 3c 4e e0 81 be 7e ad 36 be 4e 35 a5 3d
       0.011647496 -0.25366443 -0.1783962 0.08066808
000230 c5 0e 06 be 4a bc 04 bc 16 91 0b be 93 3d c4 bd
       -0.13091572 -0.008101532 -0.13629565 -0.09582057
000240 7c db a5 bd 35 bc e7 be ca b3 85 bd 69 21 bd bd
       -0.08098504 -0.45260778 -0.06528433 -0.09234888
000250 00 fa 3c b9 1e 7d 5a 3d 7b f0 ee 3c 55 fe 40 be
       -0.0001802221 0.053341977 0.029167404 -0.1884702
000260 b9 0a 1a 3e 56 de 49 be 33 02 15 3e a6 97 23 bb
       0.15043153 -0.1971372 0.1455162 -0.0024962216
000270 99 7e 2c be cf a3 81 be e3 d6 4d 3e 1d 73 83 bc
       -0.16845168 -0.2532029 0.20101504 -0.016046101
000280 15 a2 8f 3d 96 1a 61 3c d7 64 fe 3d 81 b2 ce bd
       0.070133366 0.013739249 0.124215774 -0.10092641
000290 2f 34 d2 3d d4 37 0f 3d 18 87 0d 3e 64 7a bf be
       0.102638595 0.03496535 0.13821065 -0.37398064
0002a0 aa 56 ac 3e f8 cf 9c be ae d5 8a bd f8 a5 b9 bc
       0.3365987 -0.30627418 -0.067790374 -0.022662148
0002b0 e5 33 e3 bd 08 51 7d 3e 5c 03 bb 3d b4 d6 6b 3c
       -0.110938825 0.24737942 0.091315 0.014394451
0002c0 66 de 0b bd b0 ea 07 be f1 7d 52 bd 78 d3 6d be
       -0.034147643 -0.1327312 -0.05138964 -0.232252
0002d0 58 34 b2 3c 22 fc 8c 3d e8 47 9c bd 3b e0 6b 3e
       0.021753475 0.06884028 -0.076309025 0.23034756
0002e0 00 18 36 3d 41 db a9 be a6 60 98 3e cb c4 55 3d
       0.044456482 -0.3317509 0.29761237 0.05218963
0002f0 db b0 cb bd af e2 83 3d 7f 2a 0a 3e 73 89 3d 3c
       -0.09945842 0.06439721 0.13492773 0.011568415
000300 75 cc 20 3e 55 ba 3e 3d 0b 91 52 be ed 56 2c 3d
       0.15702994 0.04656442 -0.20563142 0.042075086
000310 dc c1 c0 3e dd 59 61 3d ff 1f 4f 3d 8c 26 51 bd
       0.37647903 0.05501734 0.050567623 -0.05106215
000320 f6 0e 2a 3e b1 53 5d 3c 39 b2 56 be c2 69 3d 3d
       0.1660727 0.013508723 -0.20966424 0.046243437
000330 ac c1 8f 3b 3c 3a 92 be 32 33 29 ba 04 37 96 bd
       0.004387101 -0.28560054 -0.0006454467 -0.07334712
000340 06 f8 4b bd 06 e5 55 bc 51 6d 9a bd 47 98 23 be
       -0.04979708 -0.013055092 -0.07540382 -0.15976058
000350 d1 64 03 bd 09 5d b8 bd c8 f2 2e bd 70 6a bc 3d
       -0.032078568 -0.0900212 -0.042712003 0.09199989
000360 e7 a1 4c 3e a1 9c 24 be e4 60 4b 3e c9 ef 4b be
       0.19983636 -0.16075374 0.1986118 -0.1991569
000370 48 9c 75 be ff 2e 00 be 60 67 0d bd 06 a3 20 bc
       -0.23985398 -0.12517928 -0.034522414 -0.009804493
000380 8a 00 e6 3d 67 ec 99 bd a4 67 7d 3c 20 c6 bb 3d
       0.112305716 -0.07515793 0.015466604 0.09168649
000390 7d d3 97 3c 7e c6 7b bd 26 09 16 bd b8 3f d3 bd
       0.018533463 -0.061468594 -0.03662982 -0.10314888
0003a0 2b 61 6d 3e ee 38 b1 3d 03 df 29 3d 37 bd 16 3e
       0.23181598 0.086534366 0.041472446 0.14720617
0003b0 6b 10 bc 3d 22 b1 5f be 24 53 05 bc 48 6a e6 bd
       0.09182819 -0.21844915 -0.008137498 -0.1125074
0003c0 01 d1 87 bd db 2a b6 be 37 d8 30 bd a6 b0 52 be
       -0.06631661 -0.3557957 -0.04317495 -0.20575199
0003d0 44 c2 f9 bd 1b 80 8f be aa 77 18 bc 57 c5 4b 3d
       -0.12195256 -0.28027424 -0.009305874 0.049748745
0003e0 ec 03 1d 3c e9 02 45 3e 80 81 2d 3e dc 08 1b be
       0.009583455 0.19239391 0.16943932 -0.15140098
0003f0 2e 50 32 be 3f a9 60 be 20 9f eb bd 85 5b 11 bd
       -0.17413399 -0.21939562 -0.1150496 -0.03548767

leaner2.bias f4 [16]
000000 c6 df 82 3d c4 db 21 3e 7d 5e 87 40 2b 79 aa be
       0.06390338 0.1580649 4.230284 -0.3329557
000010 ad 36 18 40 00 61 71 3f 36 41 1a 3f 9b 47 3d bd
       2.3783371 0.94288635 0.60255754 -0.046210866
000020 6d e6 89 be 3e a1 e0 3f 7a b2 ba be 69 81 89 c0
       -0.26933613 1.7549207 -0.36464292 -4.297047
000030 6c 7b de 3e a5 15 a5 3e 78 90 6b c0 bb 3b 62 3f
       0.43453538 0.32243076 -3.6806927 0.8837239

leaner3.weight f4 [4, 16]
000000 52 ec 3b 3b 05 b9 22 3c 9e 15 a0 bf 9d 62 a4 bc
       0.0028674793 0.009931807 -1.2506597 -0.020066554
000010 20 c8 c8 bc 0a 49 fe bc 69 45 cf bc e4 7e a8 bc
       -0.02450949 -0.031040687 -0.025301652 -0.020568319
000020 c2 18 8d bc f7 b5 83 bc 28 9b 42 3c 16 5f a3 3f
       -0.01722372 -0.016077979 0.011877812 1.2763393
000030 59 7d 96 3c 27 ce 68 3c 27 42 30 3f 3f a8 9d bc
       0.018370317 0.014209307 0.6885094 -0.019245265
000040 d4 8a 63 3d a8 ca 3a be 45 a7 37 be ff 34 7f bd
       0.05555232 -0.1824137 -0.17934902 -0.0623064
000050 9e 48 e5 bd 17 52 25 bd 84 e4 e0 3d c3 81 b7 3d
       -0.11195491 -0.04036149 0.10981086 0.08960297
000060 30 30 b1 3d 4b 6f df bc d4 9b 20 bd 5e 7c 3e 3c
       0.08651769 -0.027274748 -0.03921111 0.011626331
000070 3f 5b 83 bd a0 f8 84 bc e4 e2 a1 bd db 0f 45 3d
       -0.06413888 -0.016231835 -0.07904604 0.048110824
000080 fb dc f0 3d 13 c2 13 be 44 2a 83 3d 24 6f a7 bd
       0.11760899 -0.14429502 0.06404546 -0.08175495
000090 4b 74 ce 3c f1 fc 83 3d ae 3f af 3d 2d 2b 1c 3e
       0.025201937 0.06444729 0.08557068 0.15250845
0000a0 10 87 8c 3d 6b a3 28 3e 87 ac 7a bd 8b f4 de bb
       0.06861699 0.16468589 -0.06119969 -0.006804054
0000b0 bc 0c 3a bd 79 94 dc bd 1e c6 d9 3d 33 5e 49 3e
       -0.0454223 -0.107705064 0.10633491 0.1966484
0000c0 1c 2e f2 bd ba 8a 3a bd c8 ae 99 bd 2d 1c 2e 3d
       -0.11825201 -0.045542456 -0.0750404 0.04250734
0000d0 09 2b 04 3e ee cc 96 3c 06 ff 47 bd 24 d2 67 3d
       0.12907042 0.018408265 -0.048827194 0.05659689
0000e0 7d 06 04 3c f5 f5 97 bd 5a b2 04 be 94 dc df bd
       0.008058188 -0.074199595 -0.1295866 -0.10930744
0000f0 3e 7d ac bc f1 57 04 bc b9 96 fd bb 7b f7 b8 3d
       -0.021055814 -0.0080776075 -0.007738915 0.09031578

leaner3.bias f4 [4]
000000 9f a3 c8 c0 1b 96 4d 40 01 06 ef be f2 eb 95 bf
       -6.2699733 3.2122867 -0.46684268 -1.171263

leaner4.weight f4 [2, 4]
000000 49 ad 9f bf ea 4b 14 bd 64 ec ef 3b 61 fc 2a 3c
       -1.2474757 -0.03620521 0.007321881 0.010436148
000010 eb 5b 9f bf 7c ca ef 3a f8 66 ed ba 38 e0 34 bc
       -1.2449926 0.0018294598 -0.0018112352 -0.011039786

leaner4.bias f4 [2]
000000 91 6f f1 40 08 ad e9 40
       7.544869 7.302372
